lung.tflite (tflite, 12380 bytes, 5 tensors)

arith.constant f4 [1, 32]
0	0xbf84fe12	-1.0390036
1	0x3f2b9516	0.6702436
2	0x3f5d9588	0.8655629
3	0xbf9cdfc7	-1.2255791
4	0x3efaab6a	0.48958904
5	0x3f51a193	0.8188717
6	0x3f1badef	0.60812277
7	0x3efa88dd	0.48932543
8	0xbfde9ec0	-1.7392197
9	0x3f168699	0.5879913
10	0x3f46a882	0.7760087
11	0x3f444cf8	0.76679945
12	0x3edb7b20	0.42867374
13	0xbf8ff73d	-1.1247326
14	0xbf31cda4	-0.6945441
15	0xbfc2fe35	-1.5233828
16	0x3f26194f	0.6488237
17	0x3f2a4bd9	0.66521984
18	0xbfd5c95d	-1.6702076
19	0x3efec1af	0.49757144
20	0xbf848060	-1.0351677
21	0x3f49a7a3	0.7877142
22	0xbf66afc4	-0.9011195
23	0xbf801115	-1.0005213
24	0xbf10e65d	-0.56601506
25	0x3efbc7de	0.49175924
26	0x3ee09aff	0.43868253
27	0x3f47cc7a	0.7804638
28	0xbfc0be0d	-1.5057999
29	0xbf6cabd1	-0.9244967
30	0x3ee3c07c	0.4448279
31	0xbf201df3	-0.625457

arith.constant1 f4 [32, 64]
0	0xbe8dabee	-0.27670234
1	0x3f215e2f	0.6303434
2	0xbeee0755	-0.4648997
3	0xbf28bc8d	-0.65912706
4	0x3d083f85	0.033263702
5	0xbec9a4c6	-0.39383525
6	0x3d9bb2bb	0.076024495
7	0x3ccc1db9	0.024916517
8	0x3b52a2fc	0.0032140603
9	0xbe26242d	-0.16224737
10	0x3dfebbba	0.1243815
11	0x3e56a59f	0.20961617
12	0x3f249dae	0.643031
13	0x3e555837	0.20834433
14	0x3c0677c4	0.008207265
15	0x3ec367e8	0.38165212
16	0xbdbd7c76	-0.09252255
17	0x3eef63a8	0.4675572
18	0xbf06effe	-0.5270995
19	0xbeaf5216	-0.34242314
20	0x3e48567a	0.19564238
21	0xbe478af7	-0.19486605
22	0xbdeda1d4	-0.11603132
23	0xbd29eab0	-0.04148358
24	0x3ee72cce	0.4515137
25	0x3eac17df	0.33611962
26	0xbe09c174	-0.13452703
27	0xbcf50435	-0.029909233
28	0xbe123d3f	-0.14281176
29	0xbb278053	-0.0025558665
30	0xbe9c5497	-0.30533287
31	0x3dcd2aa5	0.100178994
32	0xbe148309	-0.14503111
33	0xbe97370c	-0.29534185
34	0xbf62fae0	-0.88664055
35	0xbdac6683	-0.0841799
36	0x3eed9475	0.46402326
37	0x3f27821f	0.65432924
38	0x3e3eb8ab	0.18625133
39	0xbe930155	-0.28711954
40	0xbd99416c	-0.07483181
41	0x3d912052	0.07086243
42	0x3e912084	0.2834512
43	0xbe8abaca	-0.27095634
44	0xbf123ea2	-0.5712682
45	0xbe25d067	-0.1619278
46	0xbe79249a	-0.24330369
47	0xbdac4c31	-0.0841297
48	0xbf22ccc9	-0.6359373
49	0x3f1a3c96	0.60248697
50	0xbec4d810	-0.38446093
51	0xbe893b33	-0.26802978
52	0xbd61c237	-0.05511686
53	0xbe8737e1	-0.2640982
54	0x3c874e32	0.016516779
55	0x3f080b4e	0.5314225
56	0xbc0aaae6	-0.008463597
57	0x3d36ba6f	0.04461139
58	0xbeeb00bd	-0.45899
59	0x3d8bd269	0.06827242
60	0x3f0665f7	0.52499336
61	0x3d10c2d8	0.035342067
62	0xbe8f7f92	-0.28027016
63	0x3f14bd1f	0.58101076
64	0x3ee3bac7	0.44478437
65	0x3dea5102	0.11441232
66	0x3e45de22	0.19323018
67	0x3efab6e1	0.4896765
68	0x3e0a90a1	0.13531734
69	0x3e727945	0.23679073
70	0x3f027e6a	0.5097414
71	0x3e332c45	0.17497356
72	0x3d49e713	0.049292635
73	0x3e6dce57	0.23223244
74	0x3e8caf00	0.27477264
75	0x3d86f51a	0.06589718
76	0x3e844440	0.2583332
77	0x3ee07c5e	0.43844885
78	0x3e80ff89	0.25194958
79	0x3efc249b	0.49246678
80	0x3edd830b	0.4326404
81	0x3ef50871	0.47858003
82	0x3f128f35	0.57249767
83	0x3e9f4265	0.31105343
84	0x3eaa417f	0.33253095
85	0x3e61b9da	0.22043553
86	0x3eb70081	0.35742572
87	0x3eeb4eba	0.459585
88	0x3e92d871	0.28680757
89	0x3d3274eb	0.043568533
90	0x3e7d6b28	0.24747908
91	0x3ebb54a3	0.3658801
92	0x3e8e6bc4	0.27816594
93	0x3eea4c0b	0.4576114
94	0x3dc6453e	0.09681176
95	0x3ee2b94a	0.4428199
96	0x3e8aeb53	0.27132663
97	0x3f00c656	0.50302637
98	0x3e290373	0.16505222
99	0x3ee862f5	0.45387998
100	0x3eadb0ee	0.3392405
101	0x3e86be84	0.26317227
102	0x3e52297b	0.20523636
103	0x3e6357b5	0.22201426
104	0x3e48e951	0.19620253
105	0x3e3349c3	0.17508607
106	0x3f0be2e0	0.5464306
107	0x3f0d6943	0.5523874
108	0x3e8d2c31	0.27572778
109	0x3d9b7667	0.07590943
110	0x3e9c3881	0.3051186
111	0x3dae48b3	0.0850996
112	0x3ebed540	0.37272072
113	0x3e7841f0	0.24243903
114	0x3ea9521d	0.3307046
115	0x3ed46aaf	0.41487643
116	0x3e1f4451	0.15553404
117	0x3e8e26db	0.2776402
118	0x3ec71b94	0.38888228
119	0x3e3fb8bc	0.18722814
120	0x3d7647d7	0.060127106
121	0x3e136494	0.14393836
122	0x3e9d35b9	0.3070505
123	0x3eec821e	0.46193022
124	0x3e7422ae	0.23841354
125	0x3e03c0e2	0.12866548
126	0x3e48f57d	0.19624896
127	0x3df8504d	0.12124691
128	0x3df20b38	0.11818546
129	0x3ea07074	0.31335795
130	0x3dd5e831	0.104446776
131	0x3e9ee134	0.3103119
132	0x3e99e4ef	0.30057475
133	0x3dd4053a	0.103525594
134	0x3d7d682d	0.061866928
135	0x3ed0debe	0.4079494
136	0x3d1e8a0e	0.038705878
137	0x3ee23bfc	0.4418639
138	0x3eeebfa6	0.4663059
139	0x3df94b55	0.121725716
140	0x3e93904f	0.28821036
141	0x3ee33f01	0.44384006
142	0x3ebfb4eb	0.37442717
143	0x3e3727fb	0.17886345
144	0x3ee20511	0.4414449
145	0x3f0703b9	0.52740055
146	0x3e70efb8	0.23528945
147	0x3eb00bf4	0.3438412
148	0x3e7b4860	0.24539328
149	0xbc3fa174	-0.011696208
150	0x3bc79dc8	0.006091807
151	0x3e2f7a56	0.17136511
152	0x3e96f0da	0.2948063
153	0x3ec2f79f	0.38079545
154	0x3ecf805e	0.40527624
155	0x3ea8a648	0.32939363
156	0x3ecc441d	0.39895716
157	0x3de809ae	0.11329971
158	0x3ef5de12	0.4802099
159	0x3eed8466	0.46390074
160	0x3dad062a	0.08448441
161	0x3e4f7b71	0.20261933
162	0x3dbbb6aa	0.091657
163	0x3e0d22a8	0.13782752
164	0x3e3d382a	0.18478456
165	0x3e10ff23	0.14159827
166	0x3e90a1ed	0.2824854
167	0x3d821547	0.063517146
168	0xbc1ae564	-0.009454105
169	0x3e994865	0.29938045
170	0x3ebec0f9	0.372566
171	0x3e9b2fa2	0.30309778
172	0x3ef025ad	0.46903744
173	0x3e973c13	0.2953802
174	0x3ea0688d	0.31329766
175	0x3ed6fb46	0.4198858
176	0x3e6ac1e8	0.22925532
177	0x3e72e24c	0.23719138
178	0x3e1ee51e	0.15517089
179	0x3e6720d9	0.22571124
180	0x3e73659c	0.2376923
181	0x3e9f8e9f	0.311635
182	0x3e1f3e2b	0.15551059
183	0x3de682d1	0.1125542
184	0x3e868be8	0.26278615
185	0x3efdb5ba	0.4955271
186	0x3e9e1169	0.30872658
187	0x3e98aaea	0.29817897
188	0x3eb5915d	0.35462466
189	0x3e900bfa	0.28134137
190	0x3e90748a	0.28213912
191	0x3ec58f4b	0.38585886
192	0xbe36b4da	-0.17842427
193	0xbe870452	-0.26370484
194	0x3e19c12e	0.15015098
195	0xbf180299	-0.59378964
196	0x3e1043d2	0.14088371
197	0xbef67a28	-0.48140073
198	0xbe5de3bc	-0.21668905
199	0xbe9aa34f	-0.3020272
200	0xbea139c6	-0.3148939
201	0xbe47d065	-0.1951309
202	0x3ea27d1a	0.3173607
203	0xbdef8383	-0.11695006
204	0xbe88b5e6	-0.26701277
205	0xbf0c1fed	-0.54736215
206	0xbe938f0d	-0.28820077
207	0x3f00c1c0	0.5029564
208	0xbf2030e2	-0.6257459
209	0xbdd0e0e5	-0.10199145
210	0x3dcc2f8e	0.09970008
211	0x3ee1c032	0.44091946
212	0x3d05964f	0.03261405
213	0xbeb5a6e3	-0.35478887
214	0x3ea90436	0.33011025
215	0x3eeaeb58	0.45882678
216	0xbf54501e	-0.8293475
217	0xbd477cf7	-0.04870316
218	0xbe1d70be	-0.15375039
219	0x3caf5dfa	0.021407116
220	0xbbf0c348	-0.007347498
221	0x3ec67d5a	0.3876751
222	0xbeb96821	-0.36212257
223	0xbeedafa3	-0.46423063
224	0x3d4dfad6	0.050288044
225	0x3cd33e47	0.025786532
226	0x3e8d698c	0.27619588
227	0xbe8992f1	-0.2686992
228	0x3e89972e	0.26873153
229	0x3eac1a98	0.3361404
230	0xbf4ef11a	-0.8083664
231	0xbde3286e	-0.11091696
232	0xbe6a69f8	-0.22891986
233	0xbe2328ae	-0.15933487
234	0xbf6a5c1e	-0.9154681
235	0xbe8c7e99	-0.27440336
236	0x3dcb3181	0.099215515
237	0xbe25a31c	-0.16175503
238	0x3f1ca716	0.6119245
239	0x3e8db5e2	0.27677828
240	0xbf38bacf	-0.7216005
241	0x3cd32bc0	0.025777698
242	0xbed6b847	-0.41937467
243	0x3d8a186d	0.0674294
244	0xbeb7ad32	-0.35874325
245	0x3e57396b	0.21017997
246	0xbee3349a	-0.4437607
247	0x3dd38173	0.10327425
248	0x3c60c5d9	0.013719046
249	0xbf4c01c5	-0.796902
250	0xbf2dcdae	-0.6789197
251	0xbf8ec66c	-1.1154304
252	0xbf246752	-0.64220154
253	0x3e7f42b1	0.24927785
254	0x3d9f1444	0.07767537
255	0xbe665ed4	-0.22497112

sequential_1/dense_1_2/BiasAdd/ReadVariableOp f4 [32]
0	0xbee9f593	-0.4569517
1	0x3ffbe1d6	1.9678295
2	0x3ffa2cf1	1.9544965
3	0x3e21a9b1	0.15787388
4	0x4002aaf2	2.0416837
5	0x3ff68948	1.9260645
6	0x40007ebc	2.0077353
7	0x4006bd8b	2.1053188
8	0x3d3956ed	0.045248915
9	0x3fffaae8	1.9974031
10	0x3ff61583	1.9225315
11	0x3ff716f3	1.9303879
12	0x40042715	2.0648854
13	0xbecdd43e	-0.4020099
14	0x3e003f04	0.12524039
15	0x3ecc563a	0.39909536
16	0x3ffdfbd2	1.9842474
17	0x3ffa74c2	1.9566882
18	0x3d649517	0.055806246
19	0x40038204	2.0548105
20	0xbf13c5b8	-0.5772357
21	0x3ffd9431	1.981085
22	0x3eac07dc	0.33599746
23	0xbea07ebb	-0.31346688
24	0x3dc66828	0.09687835
25	0x40028fc5	2.040025
26	0x4004ddb2	2.0760312
27	0x3ff8a16e	1.9424264
28	0x3de97909	0.11400039
29	0x3e74b484	0.23896986
30	0x4005c08a	2.0898767
31	0xbf324bf0	-0.6964712

sequential_1/dense_1/BiasAdd/ReadVariableOp f4 [64]
0	0x3f171ff3	0.59033126
1	0x3f230a27	0.63687366
2	0x3f4e86eb	0.8067462
3	0x3f0936f3	0.5359947
4	0x3f455632	0.7708465
5	0x3f373e78	0.71579695
6	0x3f35bf01	0.70994574
7	0x3f2e1e05	0.68014556
8	0x3f26813b	0.6504094
9	0x3f28e805	0.65979034
10	0x3f385fec	0.72021365
11	0x3f2c01c3	0.6719019
12	0x3f155228	0.58328485
13	0x3f297779	0.66197926
14	0x3f1bbc3e	0.6083411
15	0x3f1a7bf1	0.6034537
16	0x3f0fb3b3	0.56133574
17	0x3f270119	0.6523605
18	0x3f3f79c7	0.7479519
19	0x3f5cb87c	0.86219
20	0x3f41c731	0.75694567
21	0x3f361faa	0.71142066
22	0x3f4c040f	0.7969369
23	0x3f68987b	0.90857667
24	0x3f09a8cb	0.5377318
25	0x3eea5669	0.4576905
26	0x3f3c8203	0.7363588
27	0x3f30dc48	0.6908612
28	0x3f52260c	0.82089305
29	0x3f41463a	0.7549778
30	0x3f4507bd	0.7696493
31	0x3f337d51	0.7011309
32	0x3f3a967e	0.7288588
33	0x3f25aa02	0.64712536
34	0x3f2e70ae	0.68140686
35	0x3f2f8312	0.6855937
36	0x3f0448a3	0.51673335
37	0x3f36df0d	0.714341
38	0x3f00581e	0.50134456
39	0x3e8afc85	0.27145782
40	0x3f414354	0.7549336
41	0x3f3d4276	0.73929536
42	0x3f067f8f	0.5253839
43	0x3f2709d9	0.652494
44	0x3f6514d2	0.89484894
45	0x3f2da9df	0.6783733
46	0x3e73a628	0.23793852
47	0x3f614ece	0.8801087
48	0x3f1cf602	0.6131288
49	0x3f177a1c	0.591707
50	0x3f25afdb	0.6472146
51	0x3e9aaddc	0.3021077
52	0x3f4dac8f	0.8034143
53	0x3eeb0cad	0.45908108
54	0x3f1a7c4d	0.6034592
55	0x3f1d0888	0.6134114
56	0x3f54f503	0.8318636
57	0x3f188283	0.59574145
58	0x3f237561	0.6385098
59	0x3f0fd278	0.56180525
60	0x3f09d533	0.5384094
61	0x3f3a50dc	0.7277963
62	0x3f36cad3	0.71403235
63	0x3f2f2b2a	0.6842524

sequential_1/dense_1/MatMul f4 [64, 7]
0	0xbeafc589	-0.34330395
1	0x3f2539a0	0.64541054
2	0xbb669191	-0.003518198
3	0x3e17ace8	0.14812052
4	0x3e2433bf	0.16035365
5	0x3d5ca743	0.05387045
6	0x3d09f1af	0.033677753
7	0xbecff389	-0.4061549
8	0x3f2e29bb	0.68032426
9	0x3e275083	0.16339307
10	0xbe23e794	-0.16006309
11	0xbd41bb2d	-0.047297645
12	0xbd857e0c	-0.06518182
13	0xbd7e325c	-0.062059745
14	0xbe7186f9	-0.23586644
15	0x3f0930fe	0.5359038
16	0xbd996c00	-0.074913025
17	0xbd24fda5	-0.040280957
18	0x3dcba537	0.099436216
19	0x3e1a2e01	0.15056612
20	0xbe001ad1	-0.1251023
21	0xbeae91d7	-0.34095642
22	0x3f228eeb	0.63499326
23	0xbdb9460e	-0.09046565
24	0x3d0f0ee8	0.034926325
25	0x3bcce118	0.006252419
26	0xbc18d0c0	-0.009327114
27	0x3b948a38	0.0045330785
28	0x3e13d82b	0.1443793
29	0x3e4e322f	0.20136331
30	0x3dd09d82	0.10186292
31	0x3e8db850	0.27679682
32	0xbd23b5e5	-0.03996839
33	0xbd57c4fd	-0.052678097
34	0x3dba9d36	0.09112017
35	0xbe6308ef	-0.22171377
36	0x3f17a540	0.59236526
37	0xbd0ccabd	-0.034373034
38	0x3e341fb1	0.17590214
39	0x3b9e2e58	0.004827302
40	0xbceb9537	-0.028757675
41	0x3de7747e	0.11301516
42	0xbe807d92	-0.25095803
43	0x3f0e81c9	0.55666786
44	0x3d322255	0.043489773
45	0xbd5a4c5d	-0.053295482
46	0xbd994220	-0.074833155
47	0xbd77b35c	-0.060473785
48	0xbc27241c	-0.01020148
49	0xbe4e6541	-0.20155813
50	0x3f024dfe	0.50900257
51	0xbcf80392	-0.03027514
52	0x3d780de5	0.060560126
53	0x3b05d341	0.0020420107
54	0xbbfc36b0	-0.007696949
55	0x3d5c4f12	0.053786345
56	0xbe954067	-0.29150698
57	0x3f19786b	0.5994937
58	0xbca24128	-0.01980646
59	0xbd99cee4	-0.075101644
60	0xbd4c9463	-0.0499462
61	0xbca9e4b5	-0.020738939
62	0x3cb3d48b	0.021951934
63	0xbe915930	-0.28388357
64	0x3f1028e0	0.5631237
65	0xbca9ef25	-0.020743916
66	0x3e17ba9c	0.1481728
67	0x3d716853	0.058937382
68	0x3d2cd986	0.042199634
69	0x3da60426	0.0810626
70	0xbe9f88d0	-0.31159067
71	0xbc36c735	-0.011155893
72	0x3ea0dea5	0.31419864
73	0x3ee62f61	0.44958022
74	0xbd1584a5	-0.036503453
75	0x3e03e5dc	0.12880653
76	0xbe71a5e7	-0.23598443
77	0xbe87c4f8	-0.26517463
78	0x3f1dda0b	0.6166083
79	0x3cdd0d9f	0.026984034
80	0xbe220229	-0.15821137
81	0xbe8d1098	-0.27551723
82	0xbdae431c	-0.08508894
83	0xbdefe652	-0.11713852
84	0xbecd9d37	-0.40159008
85	0x3f1f7bc3	0.6229822
86	0x3dece966	0.11567955
87	0x3cde8448	0.027162686
88	0xbd587465	-0.052845377
89	0xbc474d86	-0.012164479
90	0x3d655f74	0.055999234
91	0xbeb541ff	-0.35401914
92	0x3f1f9752	0.6234027
93	0x3d87ba00	0.066272736
94	0x3d6f716f	0.058457788
95	0x3cfff8d9	0.03124659
96	0xbcda68b9	-0.026661264
97	0x3ce76ad2	0.028249178
98	0xbee3c880	-0.44488907
99	0x3f2ed7b1	0.6829787
100	0x3d8ff7cb	0.07029685
101	0x3bf9ed76	0.0076271845
102	0x3d1cea60	0.038309455
103	0x3d31345a	0.043262817
104	0x3bd89c50	0.006610431
105	0xbed95474	-0.42447245
106	0x3e4ea054	0.20178348
107	0xbec8e300	-0.39235687
108	0x3c33c39f	0.010971933
109	0xbeb7d4be	-0.35904497
110	0x3e40d930	0.1883285
111	0x3ce6c099	0.02816801
112	0xbeaac1c8	-0.33350968
113	0x3f1903f3	0.5977165
114	0x3d706db8	0.058698386
115	0x3de30cc3	0.110864185
116	0xbc13e0a0	-0.009025723
117	0xbdc097c2	-0.094039455
118	0x3d4e5df0	0.050382555
119	0xbea5e897	-0.32404014
120	0x3f1b2009	0.60595757
121	0x3e76d7f3	0.24105816
122	0xbdff7e1f	-0.124752276
123	0xbd5faabb	-0.05460618
124	0xbd67764d	-0.056509305
125	0xbd9b1b11	-0.07573522
126	0xbe26357a	-0.16231337
127	0x3ee1407f	0.4399452
128	0xbda4bdf3	-0.080440424
129	0xbd1087d5	-0.03528579
130	0x3e1e5dc3	0.15465455
131	0x3e3c7b22	0.18406346
132	0xbdefa702	-0.11701776
133	0xbba0bcd7	-0.004905324
134	0x3ddeb198	0.10873717
135	0xbbb2d0d7	-0.0054570246
136	0xbdb7d99e	-0.08977054
137	0x3e423a02	0.1896744
138	0x3ee93c4a	0.4555381
139	0xbdc286f8	-0.094983995
140	0x3e424328	0.1897093
141	0x3eafa55a	0.3430584
142	0x3d23f64d	0.040029813
143	0xbedac87f	-0.4273109
144	0xbd427cb8	-0.047482222
145	0x3d11e449	0.0356181
146	0xbe558e52	-0.20855072
147	0xbe06a16f	-0.1314752
148	0x3ef421b8	0.47681975
149	0x3da95ce9	0.08269674
150	0x3e84b2da	0.25917703
151	0xbdbbc05d	-0.0916755
152	0xbe20adef	-0.1569135
153	0x3e189a48	0.14902604
154	0x3e8a45e2	0.2700644
155	0x3e851eaa	0.25999957
156	0x3bffd7b2	0.0078076953
157	0x3e4e9383	0.20173459
158	0xbe7d3b37	-0.2472962
159	0xbdd4c178	-0.10388464
160	0xbc8e56c5	-0.01737536
161	0xbd11357a	-0.03545139
162	0x3d039bc9	0.03213099
163	0x3b256bb2	0.0025241193
164	0xbe346816	-0.1761783
165	0x3daeddae	0.08538376
166	0x3f36e396	0.7144102
167	0x3d60d689	0.054892097
168	0xbef3574d	-0.47527543
169	0x3f395178	0.72389936
170	0x3dde4796	0.10853498
171	0x3d7ff84f	0.062492665
172	0xbc8223c7	-0.0158862
173	0xbc086ecd	-0.008327198
174	0x3d7e3166	0.06205883
175	0x3dc2c486	0.0951014
176	0x3edaee0f	0.4275975
177	0xbdaaedc7	-0.08346134
178	0xbf492b85	-0.7858203
179	0x3e7edade	0.24888179
180	0xbd96c68e	-0.0736209
181	0xbe972285	-0.29518524
182	0xbe23c6d9	-0.15993823
183	0x3ee04036	0.4379899
184	0xbd12db84	-0.035853878
185	0x3e0f382b	0.1398627
186	0x3d9a2ab9	0.0752768
187	0xbbbb208d	-0.0057106675
188	0x3d14ef07	0.036360767
189	0xbe85aa01	-0.26106265
190	0x3f0702ff	0.52738947
191	0x3d99d254	0.0751082
192	0x3e123b09	0.14280333
193	0x3e0776cb	0.1322891
194	0x3cf21d28	0.029554918
195	0x3ceb0394	0.02868823
196	0xbdc07d6c	-0.09398922
197	0x3f09bbbf	0.538021
198	0xbd2e17e1	-0.04250324
199	0xbe51284a	-0.20425525
200	0x3d3da8db	0.04630361
201	0x3da7f302	0.08200647
202	0xbe175225	-0.1477743
203	0xbe252cd4	-0.16130382
204	0x3ec24cb1	0.37949136
205	0xbca36889	-0.019947307
206	0xba9843e6	-0.0011616915
207	0xbcfafff9	-0.030639635
208	0x3e76cff5	0.24102767
209	0x3d827426	0.0636981
210	0xbe5ab0c0	-0.21356487
211	0x3f0d6279	0.5522838
212	0xbc9e36e7	-0.019313289
213	0xbc44c6de	-0.012010304
214	0x3d9aa26b	0.0755051
215	0x3cfe1993	0.031018054
216	0xbcec8ea4	-0.02887661
217	0xbebce2dd	-0.36891833
218	0x3f2e255e	0.6802577
219	0xbd0461ce	-0.032319836
220	0x3daff1de	0.085910544
221	0x3d0fdc80	0.035122395
222	0xbc9d5930	-0.019207567
223	0x3d3d0dac	0.046155617
224	0x3d8cf514	0.068826824
225	0x3eca8ffc	0.39562976
226	0x3d6ec08e	0.058289103
227	0x3e05b2bc	0.13056463
228	0xbe66479c	-0.22488254
229	0xbe151edb	-0.14562552
230	0xbcae0113	-0.021240747
231	0xbdd37648	-0.10325295
232	0x3ed3ae60	0.41343975
233	0xbce3152c	-0.027720056
234	0xbda9b6be	-0.082868084
235	0x3dfa88bf	0.122331135
236	0x3d87033b	0.06592413
237	0xbdc7d08c	-0.09756574
238	0x3e16db7b	0.14732163
239	0x3f09f091	0.538827
240	0xbe9cd044	-0.30627644
241	0xbd5bf1d5	-0.053697426
242	0x3e508199	0.20361938
243	0x3ec39e96	0.3820693
244	0x3cfd727d	0.030938381
245	0xbea11df2	-0.3146816
246	0x3f1772b1	0.5915938
247	0xbc22709e	-0.009914545
248	0x3e23ed6e	0.16008541
249	0x3b54b4c2	0.0032456373
250	0xbc812270	-0.015763491
251	0x3d903627	0.07041579
252	0xbcdd5e68	-0.027022555
253	0x3e5153d0	0.20442128
254	0x3f0ae87c	0.54260993
255	0xbf627320	-0.88456917
