weather_model.tflite (tflite, 6632 bytes, 5 tensors)

arith.constant f4 [64, 7]
0.030031696 0.2790821 -0.030042028 0.075209476 0.04471582 0.084461845 -0.035850786 -0.16277151
0.41009918 -0.022361893 0.14273669 0.068128854 0.08646477 0.08908792 -0.30893058 0.53757095
0.015619736 -0.06664581 -0.17056213 -0.021153279 0.038853575 -0.2705381 0.112409286 0.08281924
-0.62749875 -0.10100813 -0.16996105 0.040206388 -0.23285797 0.4956082 0.04905617 0.18207191
0.0013204104 -0.05880686 0.1626653 -0.1725507 0.4136642 -1.0380158 -0.042759664 -0.35310125
0.21251187 0.13668896 -0.48161075 0.71788603 0.034158424 0.03256467 0.036778852 0.0026466125
0.04271216 -0.13488187 0.44905987 0.07060578 -0.07865549 -0.0029439223 -0.033675335 -0.04917335
-0.22910713 0.52460456 -0.034357324 0.14208686 0.04129526 0.0072563947 0.07995691 -0.0005537702
0.454596 0.06696652 0.045284968 -0.229633 -0.13867545 -0.117474765 0.017791778 0.31968594
-0.047742996 0.04801063 0.23102757 0.20140478 -0.11977237 -0.35731372 0.68667686 -0.050924305
0.07821928 0.08907296 0.0080486 0.002486834 -0.15629807 0.5053207 -0.05298492 0.13468388
0.13291612 0.02150218 0.05848083 -0.00940276 0.36625126 -0.0039352374 0.1261596 -0.07855185
-0.060964692 0.037318353 -0.11053601 0.41736037 -0.025655972 0.05301571 -0.013633474 0.013764246
0.056017913 -0.48215485 0.8217394 0.0740519 -0.20028639 -0.04721562 -0.020210613 -0.06578222
-0.33554426 0.6038944 -0.01622535 -0.0688537 0.026458677 0.0072874026 0.013670116 -0.16069084
0.44315848 0.013406276 0.07289127 -0.023308493 0.004373026 0.05905206 -0.21398567 0.5681248
-0.006801535 0.10137045 0.17684774 0.048923217 0.0034517315 -0.2292624 0.4812466 0.02989221
0.094916634 -0.019934384 0.0011811979 0.08836719 -0.40709478 0.07316924 -0.14193164 -0.0017656401
-0.22496781 0.7364106 0.016313689 -0.5079547 0.7083536 0.043001015 0.07781501 -0.0043635243
-0.061742235 0.07537474 -0.37097114 0.6484467 0.008264461 0.16204584 0.037683208 -0.02122488
0.09156978 -0.10038839 0.1938731 -0.023150602 -0.12477958 0.17636624 0.43719292 -0.06656524
0.059753936 0.15353802 -0.028884092 -0.0931534 0.12194676 0.36037862 -0.10221421 -0.31725463
0.598262 0.030321775 -0.07064459 -0.0045799436 -0.041727554 0.009773895 -0.30110773 0.15688252
0.2247713 -0.74786353 -0.07285481 -0.2861844 -0.0794342 -0.25201473 0.5426765 -0.06263709
-0.013243657 0.14240603 0.12078909 -0.09349756 -0.5234041 0.76153594 0.022455774 -0.15568677
-0.120296165 -0.021148713 -0.034343537 -0.4698562 0.74045396 0.07450269 -0.091429465 -0.13818759
-0.06090265 -0.009157469 -0.2553498 0.55837005 -0.0334917 -0.0697125 0.013991686 -0.009862292
-0.01602396 -0.25497448 0.65172035 -0.026077103 -0.12227011 0.13595253 0.00940942 -0.16291536
-0.38399667 0.6351315 0.0067494493 -0.0375613 0.045116533 -0.052380364 -0.035026453 0.049742006
0.39262518 -0.09963123 0.2954099 -0.23123677 -0.052231137 0.02822939 -0.16689172 0.53008837
-0.04299821 -0.21825029 0.043976307 -0.0035139823 -0.19759427 -0.24189113 0.5561404 -0.029041916
-0.05223535 0.057003673 0.01227368 -0.052055966 -0.025401572 0.33026242 0.016932901 0.17806347
00000000: 0805 f63c d9e3 8e3e b31a f6bc 6d07 9a3d
00000010: f027 373d 55fa ac3d 46d8 12bd 93ad 26be
00000020: 85f8 d13e 4a30 b7bc 9129 123e 2487 8b3d
00000030: 7114 b13d ba73 b63d 262c 9ebe 409e 093f
00000040: ece9 7f3c 997d 88bd d7a7 2ebe a449 adbc
00000050: ed24 1f3d f883 8abe d736 e63d 229d a93d
00000060: c2a3 20bf 5add cebd 450a 2ebe 74af 243d
00000070: 5272 6ebe 5cc0 fd3e 1fef 483d 0f71 3a3e
00000080: 9f11 ad3a 76df 70bd bb91 263e 21b1 30be
00000090: cbcb d33e b4dd 84bf c224 2fbd b0c9 b4be
000000a0: b69c 593e 31f8 0b3e af95 f6be 61c7 373f
000000b0: b4e9 0b3d 8862 053d 6ca5 163d ca72 2d3b
000000c0: f2f2 2e3d 791e 0abe 2deb e53e c399 903d
000000d0: 2116 a1bd d2ee 40bb 26ef 09bd ff69 49bd
000000e0: 0f9b 6abe 7c4c 063f 44ba 0cbd 387f 113e
000000f0: 3825 293d 0dc7 ed3b 73c0 a33d e42a 11ba
00000100: cfc0 e83e be25 893d bb7c 393d ea24 6bbe
00000110: f000 0ebe 9c96 f0bd 10c0 913c e0ad a33e
00000120: 298e 43bd cba6 443d 7e92 6c3e 0e3d 4e3e
00000130: 374b f5bd d3f1 b6be 0eca 2f3f 0196 50bd
00000140: 6e31 a03d e26b b63d 46de 033c 27fa 223b
00000150: 9a0c 20be b35c 013f b706 59bd 92ea 093e
00000160: 2a1b 083e 5725 b03c 9889 6f3d 090e 1abc
00000170: 4985 bb3e 2af3 80bb fb2f 013e cbdf a0bd
00000180: 1db6 79bd 21db 183d b460 e2bd 42b0 d53e
00000190: 792c d2bc 0027 593d ef5e 5fbc 6f83 613c
000001a0: 0a73 653d 00dd f6be 835d 523f 86a8 973d
000001b0: e017 4dbe 2a65 41bd ba90 a5bc d4b8 86bd
000001c0: 75cc abbe d398 1a3f 06eb 84bc 2b03 8dbd
000001d0: debf d83c 2acb ee3b 9ff8 5f3c 248c 24be
000001e0: abe5 e23e ffa5 5b3c 0548 953d 74f1 bebc
000001f0: 9a4b 8f3b 93e0 713d 0f1f 5bbe a070 113f
00000200: 69df debb 4f9b cf3d 9317 353e b663 483d
00000210: 7236 623b c3c3 6abe f465 f63e 82e0 f43c
00000220: a763 c23d 6f4d a3bc 6dd2 9a3a dbf9 b43d
00000230: ba6e d0be c1d9 953d 8756 11be 0d6d e7ba
00000240: f65d 66be 6885 3c3f 49a4 853c 5209 02bf
00000250: a956 353f d521 303d 7a5d 9f3d e5fb 8ebb
00000260: 6de5 7cbd 125e 9a3d eeef bdbe 9a00 263f
00000270: a967 073c 58ef 253e b559 1a3d cddf adbc
00000280: f088 bb3d 6e98 cdbd ac86 463e 55a6 bdbc
00000290: 708c ffbd 5a99 343e c0d7 df3e 5b53 88bd
000002a0: 8bc0 743d 1239 1d3e 559e ecbc 36c7 bebd
000002b0: 39bf f93d 8c83 b83e af55 d1bd 336f a2be
000002c0: b327 193f 5f65 f83c 1cae 90bd 5a13 96bb
000002d0: 83ea 2abd b022 203c cb2a 9abe d0a5 203e
000002e0: 732a 663e fc73 3fbf e734 95bd c386 92be
000002f0: 66ae a2bd 1308 81be d9ec 0a3f e047 80bd
00000300: ecfb 58bc e3d2 113e 4560 f73d a67b bfbd
00000310: d0fd 05bf 05f4 423f 2cf5 b73c 5a6c 1fbe
00000320: d65d f6bd 1140 adbc cfab 0cbd fe90 f0be
00000330: 648e 3d3f de94 983d 5f3f bbbd 0c81 0dbe
00000340: 0f75 79bd 3509 16bc 36bd 82be 57f1 0e3f
00000350: 982e 09bd 6dc5 8ebd 623d 653c 7395 21bc
00000360: ae44 83bc 048c 82be 25d7 263f a69f d5bc
00000370: c068 fabd 2437 0b3e f829 1a3c 49d3 26be
00000380: 369b c4be fa97 223f 7c2a dd3b e1d9 19bd
00000390: 1dcc 383d cb8c 56bd e677 0fbd 46be 4b3d
000003a0: 2b06 c93e 750b ccbd f73f 973e 55c9 6cbe
000003b0: 51f0 55bd 5241 e73c aae5 2abe dfb3 073f
000003c0: e41e 30bd 017d 5fbe 8020 343d d74a 66bb
000003d0: 2756 4abe 4fb2 77be 385f 0e3f 50e9 edbc
000003e0: bcf4 55bd af7c 693d 8c17 493c a338 55bd
000003f0: f516 d0bc 2818 a93e deb6 8a3c 4556 363e

arith.constant1 f4 [64]
0.7663739 0.7159322 0.7070869 0.7377141 0.59105843 0.2604635 0.5235736 0.7060069
0.68864334 0.7347882 0.83758736 0.64129174 0.74760324 0.7412006 0.6993561 0.6137186
0.58454275 0.6395808 0.6974246 0.5933384 0.68597776 0.45456472 0.641211 0.82484543
0.82877433 0.5440594 0.7312492 0.61237586 0.3945508 0.54675657 0.5990732 0.7867657
0.5186558 0.6696651 0.7095004 0.7009763 0.69061023 0.57065266 0.51514596 0.77343357
0.7176864 0.64541125 0.64124036 0.85850924 0.6322679 0.46467566 0.6815361 0.69281346
0.68470085 0.4901316 0.7418895 0.6352743 0.5821654 0.58901906 0.81552905 0.5776504
0.5804609 0.62646174 0.67417926 0.86546665 0.4695672 0.6080029 0.92645943 0.7100714
00000000: 1431 443f 5547 373f a603 353f d5da 3c3f
00000010: 9b4f 173f 795b 853e eb08 063f debc 343f
00000020: ee4a 303f 141b 3c3f 206c 563f b22b 243f
00000030: ed62 3f3f 53bf 3d3f 0009 333f aa1c 1d3f
00000040: 98a4 153f 91bb 233f 6b8a 323f 06e5 173f
00000050: 3d9c 2f3f b5bc e83e 6726 243f 1229 533f
00000060: 8e2a 543f 7a47 0b3f 2633 3b3f aac4 1c3f
00000070: 9002 ca3e 3df8 0b3f dc5c 193f 7a69 493f
00000080: a0c6 043f 2c6f 2b3f d1a1 353f 2f73 333f
00000090: d5cb 303f 4b16 123f 9be0 033f beff 453f
000000a0: 4cba 373f ac39 253f 5428 243f 43c7 5b3f
000000b0: 4fdc 213f f8e9 ed3e 2679 2e3f 395c 313f
000000c0: 8e48 2f3f 87f2 fa3e 78ec 3d3f 56a1 223f
000000d0: cb08 153f f4c9 163f 83c6 503f e6e0 133f
000000e0: 1699 143f cc5f 203f 0397 2c3f 398f 5d3f
000000f0: 1d6b f03e 14a6 1b3f 722c 6d3f 3dc7 353f

arith.constant2 f4 [32]
1.9046514 2.0496001 1.9176534 1.9319563 0.18260927 -0.03342796 1.9421401 -0.18833338
2.0434604 1.9376518 1.9414892 2.0453973 -0.17040749 0.52189577 0.2690903 2.0067232
0.19677824 -0.14110872 1.9235817 1.9449453 1.9736686 1.9462637 1.9695399 0.48657662
2.0456638 -0.05749524 0.32871962 1.9094179 2.0555127 -0.11855327 1.9738487 0.18711819
00000000: 9ecb f33f a62c 0340 ab75 f53f 584a f73f
00000010: edfd 3a3e c2eb 08bd 0c98 f83f 77da 40be
00000020: 0ec8 0240 f904 f83f b882 f83f cae7 0240
00000030: 4d7f 2ebe f69a 053f 34c6 893e 276e 0040
00000040: 3c80 493e ce7e 10be ed37 f63f f8f3 f83f
00000050: 2ca1 fc3f 2b1f f93f e219 fc3f 9220 f93e
00000060: 28ec 0240 2180 6bbd f04d a83e ce67 f43f
00000070: 858d 0340 0fcc f2bd 13a7 fc3f e99b 3f3e

arith.constant4 f4 [1, 32]
0.82341385 0.42980555 0.71837777 0.62922716 -0.15272406 -1.3744501 0.6777048 -1.001576
0.45099974 0.69956946 0.70296717 0.42738253 -1.5763617 -1.3799016 -1.248351 0.51834637
-1.3334477 -0.28823867 0.68778247 0.7326031 0.59371233 0.7079537 0.7000549 -1.2121836
0.47282752 -1.395363 -1.4339415 0.8299356 0.42740905 -1.4287484 0.5721151 -0.47119078
00000000: 40cb 523f 790f dc3e 9be7 373f 0815 213f
00000010: b263 1cbe fbed afbf 107e 2d3f a433 80bf
00000020: 70e9 e63e fc16 333f a8f5 333f e2d1 da3e
00000030: 38c6 c9bf 9ea0 b0bf f7c9 9fbf 59b2 043f
00000040: 6aae aabf 0594 93be 8312 303f e08b 3b3f
00000050: 88fd 173f 743c 353f cc36 333f d528 9bbf
00000060: 7316 f23e 419b b2bf 658b b7bf a976 543f
00000070: 5cd5 da3e 3ae1 b6bf 2376 123f eb3f f1be

tfl.pseudo_qconst i1 [32, 64]
56 94 98 21 22 38 17 39
84 6 50 46 28 88 54 30
50 16 101 43 106 127 52 62
40 49 38 69 106 33 102 10
15 33 77 37 9 66 17 101
74 79 64 68 54 28 47 66
78 38 70 52 62 67 28 50
72 29 46 77 89 68 44 19
57 89 35 66 97 23 73 21
26 -4 46 93 89 27 68 29
39 51 51 38 57 126 14 41
102 59 91 89 126 90 123 102
110 34 30 118 88 -12 34 99
68 80 110 34 59 43 4 114
37 127 74 53 64 8 64 118
78 57 75 86 67 95 112 54
35 82 46 90 30 104 22 24
42 83 80 100 104 61 75 57
58 105 81 69 99 64 76 63
30 51 46 57 127 102 29 58
71 68 7 40 50 49 83 6
81 55 39 89 86 66 74 10
43 63 57 41 52 64 110 83
29 98 35 104 -7 119 110 9
20 44 7 103 91 111 122 67
49 74 103 89 111 5 80 107
77 24 42 83 41 47 38 119
109 60 89 121 120 0 30 43
83 27 35 82 99 73 1 90
54 106 26 28 80 53 64 37
51 99 98 52 88 59 9 127
43 19 95 51 -2 92 89 70
00000000: 385e 6215 1626 1127 5406 322e 1c58 361e
00000010: 3210 652b 6a7f 343e 2831 2645 6a21 660a
00000020: 0f21 4d25 0942 1165 4a4f 4044 361c 2f42
00000030: 4e26 4634 3e43 1c32 481d 2e4d 5944 2c13
00000040: 3959 2342 6117 4915 1afc 2e5d 591b 441d
00000050: 2733 3326 397e 0e29 663b 5b59 7e5a 7b66
00000060: 6e22 1e76 58f4 2263 4450 6e22 3b2b 0472
00000070: 257f 4a35 4008 4076 4e39 4b56 435f 7036
00000080: 2352 2e5a 1e68 1618 2a53 5064 683d 4b39
00000090: 3a69 5145 6340 4c3f 1e33 2e39 7f66 1d3a
000000a0: 4744 0728 3231 5306 5137 2759 5642 4a0a
000000b0: 2b3f 3929 3440 6e53 1d62 2368 f977 6e09
000000c0: 142c 0767 5b6f 7a43 314a 6759 6f05 506b
000000d0: 4d18 2a53 292f 2677 6d3c 5979 7800 1e2b
000000e0: 531b 2352 6349 015a 366a 1a1c 5035 4025
000000f0: 3363 6234 583b 097f 2b13 5f33 fe5c 5946
